…
[34m[1mTensorBoard: [0mStart with 'tensorboard --logdir results/DMFNet_MDAFP3D_train', view at http://localhost:6006/
WARNING ⚠️ no model scale passed. Assuming scale='n'.

                   from  n    params  module                                       arguments                     
  0                  -1  1         0  ultralytics.nn.AddModules.multimodal.IN      []                            
  1                  -1  1         0  ultralytics.nn.AddModules.multimodal.Multiin [1]                           
  2                  -2  1         0  ultralytics.nn.AddModules.multimodal.Multiin [2]                           
  3                   1  1       464  ultralytics.nn.modules.conv.Conv             [3, 16, 3, 2]                 
  4                  -1  1      4672  ultralytics.nn.modules.conv.Conv             [16, 32, 3, 2]                
  5                  -1  1      6640  ultralytics.nn.modules.block.C3k2            [32, 64, 1, False, 0.25]      
  6                  -1  1     36992  ultralytics.nn.modules.conv.Conv             [64, 64, 3, 2]                
  7                   2  1       464  ultralytics.nn.modules.conv.Conv             [3, 16, 3, 2]                 
  8                  -1  1      4672  ultralytics.nn.modules.conv.Conv             [16, 32, 3, 2]                
  9                  -1  1      6640  ultralytics.nn.modules.block.C3k2            [32, 64, 1, False, 0.25]      
 10                  -1  1     36992  ultralytics.nn.modules.conv.Conv             [64, 64, 3, 2]                
 11             [6, 10]  1    202429  ultralytics.nn.AddModules.LAEF.LAEF          [64]                          
 12             [6, 11]  1         0  ultralytics.nn.modules.conv.Concat           [1]                           
 13                  -1  1     30176  ultralytics.nn.modules.block.C3k2            [128, 128, 1, False, 0.25]    
 14                  -1  1    147712  ultralytics.nn.modules.conv.Conv             [128, 128, 3, 2]              
 15            [10, 11]  1         0  ultralytics.nn.modules.conv.Concat           [1]                           
 16                  -1  1     30176  ultralytics.nn.modules.block.C3k2            [128, 128, 1, False, 0.25]    
 17                  -1  1    147712  ultralytics.nn.modules.conv.Conv             [128, 128, 3, 2]              
 18            [14, 17]  1    773245  ultralytics.nn.AddModules.LAEF.LAEF          [128]                         
 19            [14, 18]  1         0  ultralytics.nn.modules.conv.Concat           [1]                           
 20                  -1  1    103424  ultralytics.nn.modules.block.C3k2            [256, 128, 1, True]           
 21                  -1  1    295424  ultralytics.nn.modules.conv.Conv             [128, 256, 3, 2]              
 22                  -1  1    346112  ultralytics.nn.modules.block.C3k2            [256, 256, 1, True]           
 23                  -1  1    164608  ultralytics.nn.modules.block.SPPF            [256, 256, 5]                 
 24                  -1  1    249728  ultralytics.nn.modules.block.C2PSA           [256, 256, 1]                 
 25            [17, 18]  1         0  ultralytics.nn.modules.conv.Concat           [1]                           
 26                  -1  1    103424  ultralytics.nn.modules.block.C3k2            [256, 128, 1, True]           
 27                  -1  1    295424  ultralytics.nn.modules.conv.Conv             [128, 256, 3, 2]              
 28                  -1  1    346112  ultralytics.nn.modules.block.C3k2            [256, 256, 1, True]           
 29                  -1  1    164608  ultralytics.nn.modules.block.SPPF            [256, 256, 5]                 
 30                  -1  1    249728  ultralytics.nn.modules.block.C2PSA           [256, 256, 1]                 
 31            [13, 16]  1    157651  ultralytics.nn.AddModules.MDAF.MDAFP3D       [128, 4, 'WithBias', [3, 5, 7], 0.0, False]
 32            [20, 26]  1    157651  ultralytics.nn.AddModules.MDAF.MDAFP3D       [128, 8, 'WithBias', [5, 9, 13], 0.0, False]
 33            [24, 30]  1    618403  ultralytics.nn.AddModules.MDAF.MDAFP3D       [256, 8, 'WithBias', [7, 11, 21], 0.0, True]
 34                  -1  1     17024  ultralytics.nn.AddModules.DySample.DySample  [256, 2]                      
 35            [-1, 32]  1         0  ultralytics.nn.modules.conv.Concat           [1]                           
 36                  -1  1    111296  ultralytics.nn.modules.block.C3k2            [384, 128, 1, False]          
 37                  -1  1      4416  ultralytics.nn.AddModules.DySample.DySample  [128, 2]                      
 38            [-1, 31]  1         0  ultralytics.nn.modules.conv.Concat           [1]                           
 39                  -1  2     43456  ultralytics.nn.modules.block.C3k2            [256, 64, 2, False]           
 40                  -1  1     16512  ultralytics.nn.AddModules.SPDConv.SPDConv    [64, 64]                      
 41            [-1, 36]  1         0  ultralytics.nn.modules.conv.Concat           [1]                           
 42                  -1  1     86720  ultralytics.nn.modules.block.C3k2            [192, 128, 1, False]          
 43                  -1  1     65792  ultralytics.nn.AddModules.SPDConv.SPDConv    [128, 128]                    
 44            [-1, 33]  1         0  ultralytics.nn.modules.conv.Concat           [1]                           
 45                  -1  1    378880  ultralytics.nn.modules.block.C3k2            [384, 256, 1, True]           
 46        [39, 42, 45]  1    431647  ultralytics.nn.modules.head.Detect           [5, [64, 128, 256]]           
DMFNet_MDAFP3D_DySample summary: 655 layers, 5,837,026 parameters, 5,837,010 gradients, 18.2 GFLOPs

Transferred 975/975 items from pretrained weights
Freezing layer 'model.46.dfl.conv.weight'
[34m[1mtrain: [0mScanning /root/workspace/OBBCrop/labels/train.cache... 17990 images, 33 backgrounds, 0 corrupt: 100%|██████████| 17990/17990 [00:00<?, ?it/s][34m[1mtrain: [0mScanning /root/workspace/OBBCrop/labels/train.cache... 17990 images, 33 backgrounds, 0 corrupt: 100%|██████████| 17990/17990 [00:00<?, ?it/s]
…
